/NequIP/model/output.py:14: UserWarning: To copy construct from a tensor, it is recommended to use sourceTensor.clone().detach() or sourceTensor.clone().detach().requires_grad_(True), rather than torch.tensor(sourceTensor).
  self.shift = nn.Parameter(torch.tensor(torch.zeros(num_species)))
Initialized new model for training.
--> Auto-initializing shift/scale (NumPy Mode)...
--> Solving for 1000 structures using NumPy...
--> Success! Shifts: [… ###################################
Model Architecture:
 NequIP(
  (atomembeds): AtomEmbedding(
    (embedding): Embedding(100, 64)
    (linear): Linear(64x0e -> 64x0e+64x1o+64x2o | 4096 weights)
  )
  (interaction_block1): InteractionBlock(
    (owninteraction1): Linear(64x0e+64x1o+64x2o -> 64x0e+64x1o+64x2o | 12288 weights)
    (owninteraction2): Linear(64x0e+64x1o+64x2o -> 64x0e+64x1o+64x2o | 12288 weights)
    (convolution): Convolution(
      (linear1): Linear(64x0e+64x1o+64x2e -> 64x0e+64x1o+64x2e | 12288 weights)
      (tp): TensorProduct(64x0e+64x1o+64x2e x 1x0e+1x1o+1x2e -> 64x0e+64x1o+64x2e | 704 paths | 704 weights)
      (linear2): Linear(64x0e+64x1o+64x2e -> 64x0e+64x1o+64x2e | 12288 weights)
      (radialMLP): Radial(
        (model): Sequential(
          (0): Linear(in_features=20, out_features=64, bias=True)
          (1): SiLU()
          (2): Linear(in_features=64, out_features=704, bias=True)
        )
      )
    )
    (gate): NonLinearGate(
      (linear): Linear(64x0e+64x1o+64x2o -> 192x0e+64x1o+64x2o | 20480 weights)
      (gate): Gate (192x0e+64x1o+64x2e -> 64x0e+64x1o+64x2e)
    )
  )
  (interaction_block2): InteractionBlock(
    (owninteraction1): Linear(64x0e+64x1o+64x2o -> 64x0e+64x1o+64x2o | 12288 weights)
    (owninteraction2): Linear(64x0e+64x1o+64x2o -> 64x0e+64x1o+64x2o | 12288 weights)
    (convolution): Convolution(
      (linear1): Linear(64x0e+64x1o+64x2e -> 64x0e+64x1o+64x2e | 12288 weights)
      (tp): TensorProduct(64x0e+64x1o+64x2e x 1x0e+1x1o+1x2e -> 64x0e+64x1o+64x2e | 704 paths | 704 weights)
      (linear2): Linear(64x0e+64x1o+64x2e -> 64x0e+64x1o+64x2e | 12288 weights)
      (radialMLP): Radial(
        (model): Sequential(
          (0): Linear(in_features=20, out_features=64, bias=True)
          (1): SiLU()
          (2): Linear(in_features=64, out_features=704, bias=True)
        )
      )
    )
    (gate): NonLinearGate(
      (linear): Linear(64x0e+64x1o+64x2o -> 192x0e+64x1o+64x2o | 20480 weights)
      (gate): Gate (192x0e+64x1o+64x2e -> 64x0e+64x1o+64x2e)
    )
  )
  (interaction_block3): InteractionBlock(
    (owninteraction1): Linear(64x0e+64x1o+64x2o -> 64x0e+64x1o+64x2o | 12288 weights)
    (owninteraction2): Linear(64x0e+64x1o+64x2o -> 64x0e+64x1o+64x2o | 12288 weights)
    (convolution): Convolution(
      (linear1): Linear(64x0e+64x1o+64x2e -> 64x0e+64x1o+64x2e | 12288 weights)
      (tp): TensorProduct(64x0e+64x1o+64x2e x 1x0e+1x1o+1x2e -> 64x0e+64x1o+64x2e | 704 paths | 704 weights)
      (linear2): Linear(64x0e+64x1o+64x2e -> 64x0e+64x1o+64x2e | 12288 weights)
      (radialMLP): Radial(
        (model): Sequential(
          (0): Linear(in_features=20, out_features=64, bias=True)
          (1): SiLU()
          (2): Linear(in_features=64, out_features=704, bias=True)
        )
      )
    )
    (gate): NonLinearGate(
      (linear): Linear(64x0e+64x1o+64x2o -> 192x0e+64x1o+64x2o | 20480 weights)
      (gate): Gate (192x0e+64x1o+64x2e -> 64x0e+64x1o+64x2e)
    )
  )
  (interaction_block4): InteractionBlock(
    (owninteraction1): Linear(64x0e+64x1o+64x2o -> 64x0e+64x1o+64x2o | 12288 weights)
    (owninteraction2): Linear(64x0e+64x1o+64x2o -> 64x0e+64x1o+64x2o | 12288 weights)
    (convolution): Convolution(
      (linear1): Linear(64x0e+64x1o+64x2e -> 64x0e+64x1o+64x2e | 12288 weights)
      (tp): TensorProduct(64x0e+64x1o+64x2e x 1x0e+1x1o+1x2e -> 64x0e+64x1o+64x2e | 704 paths | 704 weights)
      (linear2): Linear(64x0e+64x1o+64x2e -> 64x0e+64x1o+64x2e | 12288 weights)
      (radialMLP): Radial(
        (model): Sequential(
          (0): Linear(in_features=20, out_features=64, bias=True)
          (1): SiLU()
          (2): Linear(in_features=64, out_features=704, bias=True)
        )
      )
    )
    (gate): NonLinearGate(
      (linear): Linear(64x0e+64x1o+64x2o -> 192x0e+64x1o+64x2o | 20480 weights)
      (gate): Gate (192x0e+64x1o+64x2e -> 64x0e+64x1o+64x2e)
    )
  )
  (interaction_block5): InteractionBlock(
    (owninteraction1): Linear(64x0e+64x1o+64x2o -> 64x0e+64x1o+64x2o | 12288 weights)
    (owninteraction2): Linear(64x0e+64x1o+64x2o -> 64x0e+64x1o+64x2o | 12288 weights)
    (convolution): Convolution(
      (linear1): Linear(64x0e+64x1o+64x2e -> 64x0e+64x1o+64x2e | 12288 weights)
      (tp): TensorProduct(64x0e+64x1o+64x2e x 1x0e+1x1o+1x2e -> 64x0e+64x1o+64x2e | 704 paths | 704 weights)
      (linear2): Linear(64x0e+64x1o+64x2e -> 64x0e+64x1o+64x2e | 12288 weights)
      (radialMLP): Radial(
        (model): Sequential(
          (0): Linear(in_features=20, out_features=64, bias=True)
          (1): SiLU()
          (2): Linear(in_features=64, out_features=704, bias=True)
        )
      )
    )
    (gate): NonLinearGate(
      (linear): Linear(64x0e+64x1o+64x2o -> 192x0e+64x1o+64x2o | 20480 weights)
      (gate): Gate (192x0e+64x1o+64x2e -> 64x0e+64x1o+64x2e)
    )
  )
  (output_block): OutputBlock(
    (linear): Linear(64x0e+64x1o+64x2e -> 1x0e | 64 weights)
  )
)
###################################
Total Parameters:     594,341
Using device: cuda
Starting training...
✅ Saved checkpoint: ./checkpoints/Epoch-0009.pt
✅ Saved checkpoint: ./checkpoints/latest-model.pt
Starting evaluation...
==============================
RESULTS (Validation Set)
==============================
Energy MAE: 5.49959 eV
Force  MAE: 6.67582 eV/A
…
