/NequIP/model/output.py:14: UserWarning: To copy construct from a tensor, it is recommended to use sourceTensor.clone().detach() or sourceTensor.clone().detach().requires_grad_(True), rather than torch.tensor(sourceTensor).
  self.shift = nn.Parameter(torch.tensor(torch.zeros(num_species)))
Initialized new model for training.
--> Auto-initializing shift/scale (NumPy Mode)...
--> Solving for 1000 structures using NumPy...
--> Success! Shifts: [… ###################################
Model Architecture:
 NequIP(
  (atomembeds): AtomEmbedding(
    (embedding): Embedding(100, 32)
    (linear): Linear(32x0e -> 32x0e+32x1o+32x2o | 1024 weights)
  )
  (interaction_block1): InteractionBlock(
    (owninteraction1): Linear(32x0e+32x1o+32x2o -> 32x0e+32x1o+32x2o | 3072 weights)
    (owninteraction2): Linear(32x0e+32x1o+32x2o -> 32x0e+32x1o+32x2o | 3072 weights)
    (convolution): Convolution(
      (tp): FullyConnectedTensorProduct(32x0e+32x1o+32x2e x 1x0e+1x1o+1x2e -> 32x0e+32x1o+32x2e | 11264 paths | 11264 weights)
      (radialMLP): Radial(
        (model): Sequential(
          (0): Linear(in_features=8, out_features=32, bias=True)
          (1): SiLU()
          (2): Linear(in_features=32, out_features=11264, bias=True)
        )
      )
    )
    (gate): NonLinearGate(
      (linear): Linear(32x0e+32x1o+32x2o -> 96x0e+32x1o+32x2o | 5120 weights)
      (gate): Gate (96x0e+32x1o+32x2e -> 32x0e+32x1o+32x2e)
    )
  )
  (interaction_block2): InteractionBlock(
    (owninteraction1): Linear(32x0e+32x1o+32x2o -> 32x0e+32x1o+32x2o | 3072 weights)
    (owninteraction2): Linear(32x0e+32x1o+32x2o -> 32x0e+32x1o+32x2o | 3072 weights)
    (convolution): Convolution(
      (tp): FullyConnectedTensorProduct(32x0e+32x1o+32x2e x 1x0e+1x1o+1x2e -> 32x0e+32x1o+32x2e | 11264 paths | 11264 weights)
      (radialMLP): Radial(
        (model): Sequential(
          (0): Linear(in_features=8, out_features=32, bias=True)
          (1): SiLU()
          (2): Linear(in_features=32, out_features=11264, bias=True)
        )
      )
    )
    (gate): NonLinearGate(
      (linear): Linear(32x0e+32x1o+32x2o -> 96x0e+32x1o+32x2o | 5120 weights)
      (gate): Gate (96x0e+32x1o+32x2e -> 32x0e+32x1o+32x2e)
    )
  )
  (interaction_block3): InteractionBlock(
    (owninteraction1): Linear(32x0e+32x1o+32x2o -> 32x0e+32x1o+32x2o | 3072 weights)
    (owninteraction2): Linear(32x0e+32x1o+32x2o -> 32x0e+32x1o+32x2o | 3072 weights)
    (convolution): Convolution(
      (tp): FullyConnectedTensorProduct(32x0e+32x1o+32x2e x 1x0e+1x1o+1x2e -> 32x0e+32x1o+32x2e | 11264 paths | 11264 weights)
      (radialMLP): Radial(
        (model): Sequential(
          (0): Linear(in_features=8, out_features=32, bias=True)
          (1): SiLU()
          (2): Linear(in_features=32, out_features=11264, bias=True)
        )
      )
    )
    (gate): NonLinearGate(
      (linear): Linear(32x0e+32x1o+32x2o -> 96x0e+32x1o+32x2o | 5120 weights)
      (gate): Gate (96x0e+32x1o+32x2e -> 32x0e+32x1o+32x2e)
    )
  )
  (interaction_block4): InteractionBlock(
    (owninteraction1): Linear(32x0e+32x1o+32x2o -> 32x0e+32x1o+32x2o | 3072 weights)
    (owninteraction2): Linear(32x0e+32x1o+32x2o -> 32x0e+32x1o+32x2o | 3072 weights)
    (convolution): Convolution(
      (tp): FullyConnectedTensorProduct(32x0e+32x1o+32x2e x 1x0e+1x1o+1x2e -> 32x0e+32x1o+32x2e | 11264 paths | 11264 weights)
      (radialMLP): Radial(
        (model): Sequential(
          (0): Linear(in_features=8, out_features=32, bias=True)
          (1): SiLU()
          (2): Linear(in_features=32, out_features=11264, bias=True)
        )
      )
    )
    (gate): NonLinearGate(
      (linear): Linear(32x0e+32x1o+32x2o -> 96x0e+32x1o+32x2o | 5120 weights)
      (gate): Gate (96x0e+32x1o+32x2e -> 32x0e+32x1o+32x2e)
    )
  )
  (interaction_block5): InteractionBlock(
    (owninteraction1): Linear(32x0e+32x1o+32x2o -> 32x0e+32x1o+32x2o | 3072 weights)
    (owninteraction2): Linear(32x0e+32x1o+32x2o -> 32x0e+32x1o+32x2o | 3072 weights)
    (convolution): Convolution(
      (tp): FullyConnectedTensorProduct(32x0e+32x1o+32x2e x 1x0e+1x1o+1x2e -> 32x0e+32x1o+32x2e | 11264 paths | 11264 weights)
      (radialMLP): Radial(
        (model): Sequential(
          (0): Linear(in_features=8, out_features=32, bias=True)
          (1): SiLU()
          (2): Linear(in_features=32, out_features=11264, bias=True)
        )
      )
    )
    (gate): NonLinearGate(
      (linear): Linear(32x0e+32x1o+32x2o -> 96x0e+32x1o+32x2o | 5120 weights)
      (gate): Gate (96x0e+32x1o+32x2e -> 32x0e+32x1o+32x2e)
    )
  )
  (output_block): OutputBlock(
    (linear): Linear(32x0e+32x1o+32x2e -> 1x0e | 32 weights)
  )
)
###################################
Total Parameters:     1,920,677
Using device: cuda
Starting training...
✅ Saved checkpoint: ./checkpoints/Epoch-0009.pt
✅ Saved checkpoint: ./checkpoints/latest-model.pt
Starting evaluation...
==============================
RESULTS (Validation Set)
==============================
Energy MAE: 2.13003 eV
Force  MAE: 3.17580 eV/A
…
